…
ps=80, mean_ratio=1.0, naction_heads=[2], nactions='1', nagents=20, nfriendly=20, normalize_rewards=False, nprocesses=16, num_actions=[2], num_epochs=1750, num_inputs=1325, plot=False, plot_env='main', plot_port='8097', qk_hid_size=16, random=False, recurrent=True, rnn_type='LSTM', save=True, save_adjacency=0, save_every=25, seed=1, share_weights=False, tarcomm=False, tau=1.0, value_coeff=0.01, value_hid_size=32, vision=1, vocab_type='bool')
====================================================================================================
Model log:

CommNetMLP(
  (heads): ModuleList(
    (0): Linear(in_features=128, out_features=2, bias=True)
  )
  (encoder): Linear(in_features=1325, out_features=128, bias=True)
  (hidd_encoder): Linear(in_features=128, out_features=128, bias=True)
  (f_module): LSTMCell(128, 128)
  (C_modules): ModuleList(
    (0): Linear(in_features=128, out_features=128, bias=True)
  )
  (tanh): Tanh()
  (value_head): Linear(in_features=128, out_features=1, bias=True)
)
====================================================================================================

batch:  0
batch:  1
batch:  2
batch:  3
batch:  4
batch:  5
batch:  6
batch:  7
batch:  8
batch:  9
Epoch 251
Episode: 1120
Reward: [-12.55 -13.42 -11.09 -11.27 -13.08 -12.19 -11.75 -11.48 -11.79 -13.23
 -12.98 -11.32 -11.56 -11.21 -10.92 -12.   -12.2  -12.75 -13.23 -12.07]
…
batch:  8
batch:  9
Epoch 1998
Episode: 1957760
Reward: [… Time: 77.35s
Add-Rate: 0.05
Success: 0.6562
Steps-Taken: 80.00
batch:  0
batch:  1
batch:  2
batch:  3
batch:  4
batch:  5
batch:  6
batch:  7
batch:  8
batch:  9
Epoch 1999
Episode: 1958880
Reward: [… Time: 76.72s
Add-Rate: 0.05
Success: 0.6759
Steps-Taken: 80.00
batch:  0
batch:  1
batch:  2
batch:  3
batch:  4
batch:  5
batch:  6
batch:  7
batch:  8
batch:  9
Epoch 2000
Episode: 1960000
Reward: [… Time: 77.21s
Add-Rate: 0.05
Success: 0.6634
Steps-Taken: 80.00
<bound method Module.state_dict of CommNetMLP(
  (heads): ModuleList(
    (0): Linear(in_features=128, out_features=2, bias=True)
  )
  (encoder): Linear(in_features=1325, out_features=128, bias=True)
  (hidd_encoder): Linear(in_features=128, out_features=128, bias=True)
  (f_module): LSTMCell(128, 128)
  (C_modules): ModuleList(
    (0): Linear(in_features=128, out_features=128, bias=True)
  )
  (tanh): Tanh()
  (value_head): Linear(in_features=128, out_features=1, bias=True)
)>
<bound method Module.state_dict of CommNetMLP(
  (heads): ModuleList(
    (0): Linear(in_features=128, out_features=2, bias=True)
  )
  (encoder): Linear(in_features=1325, out_features=128, bias=True)
  (hidd_encoder): Linear(in_features=128, out_features=128, bias=True)
  (f_module): LSTMCell(128, 128)
  (C_modules): ModuleList(
    (0): Linear(in_features=128, out_features=128, bias=True)
  )
  (tanh): Tanh()
  (value_head): Linear(in_features=128, out_features=1, bias=True)
)>
==============================================================================
Running epilogue script on gold54.

Submit time  : 2024-02-27T06:10:26
Start time   : 2024-02-27T06:10:29
End time     : 2024-02-29T00:35:40
Elapsed time : 1-18:25:11 (Timelimit=2-12:00:00)

Job ID: 5521889
Cluster: i5
User/Group: jabn1n20/fp
State: COMPLETED (exit code 0)
Nodes: 1
…
