…
_actions=[2, 2], num_epochs=1500, num_inputs=533, plot=False, plot_env='main', plot_port='8097', qk_hid_size=16, random=False, recurrent=True, rnn_type='LSTM', save=True, save_adjacency=True, save_every=25, second_gat_normalize=False, second_graph_complete=False, seed=5, self_loop_type1=2, self_loop_type2=2, share_weights=False, tarcomm=True, tau=1.0, use_gat_encoder=False, value_coeff=0.01, value_hid_size=32, vision=1, vocab_type='bool')
====================================================================================================
Model log:

TarCommNetMLP(
  (heads): ModuleList(
    (0): Linear(in_features=128, out_features=2, bias=True)
    (1): Linear(in_features=128, out_features=2, bias=True)
  )
  (encoder): Linear(in_features=533, out_features=128, bias=True)
  (hidd_encoder): Linear(in_features=128, out_features=128, bias=True)
  (f_module): LSTMCell(128, 128)
  (C_modules): ModuleList(
    (0): Linear(in_features=128, out_features=128, bias=True)
    (1): Linear(in_features=128, out_features=128, bias=True)
  )
  (tanh): Tanh()
  (value_head): Linear(in_features=328, out_features=1, bias=True)
  (state2query): Linear(in_features=128, out_features=16, bias=True)
  (state2key): Linear(in_features=128, out_features=16, bias=True)
  (state2value): Linear(in_features=128, out_features=128, bias=True)
)
====================================================================================================

batch:  0
batch:  1
batch:  2
batch:  3
batch:  4
batch:  5
batch:  6
batch:  7
batch:  8
batch:  9
Epoch 1
Episode: 2080
Reward: [-30.99 -31.23 -30.28 -29.61 -31.05 -29.9  -29.68 -30.53 -30.73 -30.37]
Time: 118.83s
Add-Rate: 0.20
Success: 0.0255
Steps-Taken: 40.00
…
