…
ps=80, mean_ratio=1.0, naction_heads=[2], nactions='1', nagents=20, nfriendly=20, normalize_rewards=False, nprocesses=16, num_actions=[2], num_epochs=1750, num_inputs=1325, plot=False, plot_env='main', plot_port='8097', qk_hid_size=16, random=False, recurrent=True, rnn_type='LSTM', save=True, save_adjacency=0, save_every=25, seed=3, share_weights=False, tarcomm=False, tau=1.0, value_coeff=0.01, value_hid_size=32, vision=1, vocab_type='bool')
====================================================================================================
Model log:

CommNetMLP(
  (heads): ModuleList(
    (0): Linear(in_features=128, out_features=2, bias=True)
  )
  (encoder): Linear(in_features=1325, out_features=128, bias=True)
  (hidd_encoder): Linear(in_features=128, out_features=128, bias=True)
  (f_module): LSTMCell(128, 128)
  (C_modules): ModuleList(
    (0): Linear(in_features=128, out_features=128, bias=True)
  )
  (tanh): Tanh()
  (value_head): Linear(in_features=128, out_features=1, bias=True)
)
====================================================================================================

batch:  0
batch:  1
batch:  2
batch:  3
batch:  4
batch:  5
batch:  6
batch:  7
batch:  8
batch:  9
Epoch 251
Episode: 1120
Reward: [-12.54 -12.83 -10.78 -10.7  -12.21 -12.22 -11.27 -12.49 -12.03 -12.
 -12.69 -12.11 -11.41 -10.36 -11.63 -12.29 -12.67 -13.28 -12.57 -11.19]
…
batch:  8
batch:  9
Epoch 1998
Episode: 1957760
Reward: [… Time: 112.56s
Add-Rate: 0.05
Success: 0.5205
Steps-Taken: 80.00
batch:  0
batch:  1
batch:  2
batch:  3
batch:  4
batch:  5
batch:  6
batch:  7
batch:  8
batch:  9
Epoch 1999
Episode: 1958880
Reward: [… Time: 104.64s
Add-Rate: 0.05
Success: 0.5509
Steps-Taken: 80.00
batch:  0
batch:  1
batch:  2
batch:  3
batch:  4
batch:  5
batch:  6
batch:  7
batch:  8
batch:  9
Epoch 2000
Episode: 1960000
Reward: [… Time: 88.36s
Add-Rate: 0.05
Success: 0.5821
Steps-Taken: 80.00
<bound method Module.state_dict of CommNetMLP(
  (heads): ModuleList(
    (0): Linear(in_features=128, out_features=2, bias=True)
  )
  (encoder): Linear(in_features=1325, out_features=128, bias=True)
  (hidd_encoder): Linear(in_features=128, out_features=128, bias=True)
  (f_module): LSTMCell(128, 128)
  (C_modules): ModuleList(
    (0): Linear(in_features=128, out_features=128, bias=True)
  )
  (tanh): Tanh()
  (value_head): Linear(in_features=128, out_features=1, bias=True)
)>
<bound method Module.state_dict of CommNetMLP(
  (heads): ModuleList(
    (0): Linear(in_features=128, out_features=2, bias=True)
  )
  (encoder): Linear(in_features=1325, out_features=128, bias=True)
  (hidd_encoder): Linear(in_features=128, out_features=128, bias=True)
  (f_module): LSTMCell(128, 128)
  (C_modules): ModuleList(
    (0): Linear(in_features=128, out_features=128, bias=True)
  )
  (tanh): Tanh()
  (value_head): Linear(in_features=128, out_features=1, bias=True)
)>
==============================================================================
Running epilogue script on gold56.

Submit time  : 2024-02-27T06:12:26
Start time   : 2024-02-27T06:12:27
End time     : 2024-02-29T05:40:35
Elapsed time : 1-23:28:08 (Timelimit=2-12:00:00)

Job ID: 5521893
Cluster: i5
User/Group: jabn1n20/fp
State: COMPLETED (exit code 0)
Nodes: 1
…
