…
36, plot=False, plot_env='main', plot_port='8097', qk_hid_size=16, random=False, recurrent=True, rnn_type='LSTM', save=True, save_adjacency=False, save_every=25, second_gat_normalize=False, second_graph_complete=False, seed=1, self_loop_type1=2, self_loop_type2=2, share_agent_weights=False, share_weights=False, stay=True, tarcomm=False, tau=1.0, use_gat_encoder=False, value_coeff=0.01, value_hid_size=128, vision=1)
====================================================================================================
Model log:

DecTarMAC(
  (agents): ModuleList(
    (0): DecAgent(
      (encoder): Linear(in_features=936, out_features=128, bias=True)
      (tanh): Tanh()
      (state2query): Linear(in_features=128, out_features=16, bias=True)
      (state2key): Linear(in_features=128, out_features=16, bias=True)
      (state2value): Linear(in_features=128, out_features=128, bias=True)
      (C_modules): ModuleList(
        (0): Linear(in_features=128, out_features=128, bias=True)
        (1): Linear(in_features=128, out_features=128, bias=True)
      )
      (f_module): LSTMCell(128, 128)
      (heads): ModuleList(
        (0): Linear(in_features=128, out_features=5, bias=True)
        (1): Linear(in_features=128, out_features=2, bias=True)
      )
    )
    (1): DecAgent(
      (encoder): Linear(in_features=936, out_features=128, bias=True)
      (tanh): Tanh()
      (state2query): Linear(in_features=128, out_features=16, bias=True)
      (state2key): Linear(in_features=128, out_features=16, bias=True)
      (state2value): Linear(in_features=128, out_features=128, bias=True)
      (C_modules): ModuleList(
        (0): Linear(in_features=128, out_features=128, bias=True)
        (1): Linear(in_features=128, out_features=128, bias=True)
      )
      (f_module): LSTMCell(128, 128)
      (heads): ModuleList(
        (0): Linear(in_features=128, out_features=5, bias=True)
        (1): Linear(in_features=128, out_features=2, bias=True)
      )
    )
    (2): DecAgent(
      (encoder): Linear(in_features=936, out_features=128, bias=True)
      (tanh): Tanh()
      (state2query): Linear(in_features=128, out_features=16, bias=True)
      (state2key): Linear(in_features=128, out_features=16, bias=True)
      (state2value): Linear(in_features=128, out_features=128, bias=True)
      (C_modules): ModuleList(
        (0): Linear(in_features=128, out_features=128, bias=True)
        (1): Linear(in_features=128, out_features=128, bias=True)
      )
      (f_module): LSTMCell(128, 128)
      (heads): ModuleList(
        (0): Linear(in_features=128, out_features=5, bias=True)
        (1): Linear(in_features=128, out_features=2, bias=True)
      )
    )
    (3): DecAgent(
      (encoder): Linear(in_features=936, out_features=128, bias=True)
      (tanh): Tanh()
      (state2query): Linear(in_features=128, out_features=16, bias=True)
      (state2key): Linear(in_features=128, out_features=16, bias=True)
      (state2value): Linear(in_features=128, out_features=128, bias=True)
      (C_modules): ModuleList(
        (0): Linear(in_features=128, out_features=128, bias=True)
        (1): Linear(in_features=128, out_features=128, bias=True)
      )
      (f_module): LSTMCell(128, 128)
      (heads): ModuleList(
        (0): Linear(in_features=128, out_features=5, bias=True)
        (1): Linear(in_features=128, out_features=2, bias=True)
      )
    )
    (4): DecAgent(
      (encoder): Linear(in_features=936, out_features=128, bias=True)
      (tanh): Tanh()
      (state2query): Linear(in_features=128, out_features=16, bias=True)
      (state2key): Linear(in_features=128, out_features=16, bias=True)
      (state2value): Linear(in_features=128, out_features=128, bias=True)
      (C_modules): ModuleList(
        (0): Linear(in_features=128, out_features=128, bias=True)
        (1): Linear(in_features=128, out_features=128, bias=True)
      )
      (f_module): LSTMCell(128, 128)
      (heads): ModuleList(
        (0): Linear(in_features=128, out_features=5, bias=True)
        (1): Linear(in_features=128, out_features=2, bias=True)
      )
    )
  )
  (value_head): Linear(in_features=128, out_features=1, bias=True)
)
====================================================================================================

batch:  0
batch:  1
batch:  2
batch:  3
batch:  4
batch:  5
batch:  6
batch:  7
batch:  8
batch:  9
Epoch 1
Episode: 2080
Reward: [-1.85 -1.85 -1.88 -1.89 -1.86]
Time: 520.38s
Success: 0.0000
Steps-Taken: 40.00
Comm-Action: [0.44 0.55 0.7  0.36 0.44]
batch:  0
…
