…
m_epochs=500, num_inputs=3636, plot=False, plot_env='main', plot_port='8097', qk_hid_size=16, random=False, recurrent=True, rnn_type='LSTM', save=True, save_adjacency=False, save_every=25, second_gat_normalize=False, second_graph_complete=False, seed=1, self_loop_type1=2, self_loop_type2=2, share_weights=False, stay=True, tarcomm=False, tau=1.0, use_gat_encoder=False, value_coeff=0.01, value_hid_size=128, vision=1)
====================================================================================================
Model log:

DecTarMAC(
  (agents): ModuleList(
    (0): DecAgent(
      (encoder): Linear(in_features=3636, out_features=128, bias=True)
      (tanh): Tanh()
      (state2query): Linear(in_features=128, out_features=16, bias=True)
      (state2key): Linear(in_features=128, out_features=16, bias=True)
      (state2value): Linear(in_features=128, out_features=128, bias=True)
      (C_modules): ModuleList(
        (0): Linear(in_features=128, out_features=128, bias=True)
      )
      (f_module): LSTMCell(128, 128)
      (heads): ModuleList(
        (0): Linear(in_features=128, out_features=5, bias=True)
        (1): Linear(in_features=128, out_features=2, bias=True)
      )
    )
    (1): DecAgent(
      (encoder): Linear(in_features=3636, out_features=128, bias=True)
      (tanh): Tanh()
      (state2query): Linear(in_features=128, out_features=16, bias=True)
      (state2key): Linear(in_features=128, out_features=16, bias=True)
      (state2value): Linear(in_features=128, out_features=128, bias=True)
      (C_modules): ModuleList(
        (0): Linear(in_features=128, out_features=128, bias=True)
      )
      (f_module): LSTMCell(128, 128)
      (heads): ModuleList(
        (0): Linear(in_features=128, out_features=5, bias=True)
        (1): Linear(in_features=128, out_features=2, bias=True)
      )
    )
    (2): DecAgent(
      (encoder): Linear(in_features=3636, out_features=128, bias=True)
      (tanh): Tanh()
      (state2query): Linear(in_features=128, out_features=16, bias=True)
      (state2key): Linear(in_features=128, out_features=16, bias=True)
      (state2value): Linear(in_features=128, out_features=128, bias=True)
      (C_modules): ModuleList(
        (0): Linear(in_features=128, out_features=128, bias=True)
      )
      (f_module): LSTMCell(128, 128)
      (heads): ModuleList(
        (0): Linear(in_features=128, out_features=5, bias=True)
        (1): Linear(in_features=128, out_features=2, bias=True)
      )
    )
    (3): DecAgent(
      (encoder): Linear(in_features=3636, out_features=128, bias=True)
      (tanh): Tanh()
      (state2query): Linear(in_features=128, out_features=16, bias=True)
      (state2key): Linear(in_features=128, out_features=16, bias=True)
      (state2value): Linear(in_features=128, out_features=128, bias=True)
      (C_modules): ModuleList(
        (0): Linear(in_features=128, out_features=128, bias=True)
      )
      (f_module): LSTMCell(128, 128)
      (heads): ModuleList(
        (0): Linear(in_features=128, out_features=5, bias=True)
        (1): Linear(in_features=128, out_features=2, bias=True)
      )
    )
    (4): DecAgent(
      (encoder): Linear(in_features=3636, out_features=128, bias=True)
      (tanh): Tanh()
      (state2query): Linear(in_features=128, out_features=16, bias=True)
      (state2key): Linear(in_features=128, out_features=16, bias=True)
      (state2value): Linear(in_features=128, out_features=128, bias=True)
      (C_modules): ModuleList(
        (0): Linear(in_features=128, out_features=128, bias=True)
      )
      (f_module): LSTMCell(128, 128)
      (heads): ModuleList(
        (0): Linear(in_features=128, out_features=5, bias=True)
        (1): Linear(in_features=128, out_features=2, bias=True)
      )
    )
    (5): DecAgent(
      (encoder): Linear(in_features=3636, out_features=128, bias=True)
      (tanh): Tanh()
      (state2query): Linear(in_features=128, out_features=16, bias=True)
      (state2key): Linear(in_features=128, out_features=16, bias=True)
      (state2value): Linear(in_features=128, out_features=128, bias=True)
      (C_modules): ModuleList(
        (0): Linear(in_features=128, out_features=128, bias=True)
      )
      (f_module): LSTMCell(128, 128)
      (heads): ModuleList(
        (0): Linear(in_features=128, out_features=5, bias=True)
        (1): Linear(in_features=128, out_features=2, bias=True)
      )
    )
    (6): DecAgent(
      (encoder): Linear(in_features=3636, out_features=128, bias=True)
      (tanh): Tanh()
      (state2query): Linear(in_features=128, out_features=16, bias=True)
      (state2key): Linear(in_features=128, out_features=16, bias=True)
      (state2value): Linear(in_features=128, out_features=128, bias=True)
      (C_modules): ModuleList(
        (0): Linear(in_features=128, out_features=128, bias=True)
      )
      (f_module): LSTMCell(128, 128)
      (heads): ModuleList(
        (0): Linear(in_features=128, out_features=5, bias=True)
        (1): Linear(in_features=128, out_features=2, bias=True)
      )
    )
    (7): DecAgent(
      (encoder): Linear(in_features=3636, out_features=128, bias=True)
      (tanh): Tanh()
      (state2query): Linear(in_features=128, out_features=16, bias=True)
      (state2key): Linear(in_features=128, out_features=16, bias=True)
      (state2value): Linear(in_features=128, out_features=128, bias=True)
      (C_modules): ModuleList(
        (0): Linear(in_features=128, out_features=128, bias=True)
      )
      (f_module): LSTMCell(128, 128)
      (heads): ModuleList(
        (0): Linear(in_features=128, out_features=5, bias=True)
        (1): Linear(in_features=128, out_features=2, bias=True)
      )
    )
    (8): DecAgent(
      (encoder): Linear(in_features=3636, out_features=128, bias=True)
      (tanh): Tanh()
      (state2query): Linear(in_features=128, out_features=16, bias=True)
      (state2key): Linear(in_features=128, out_features=16, bias=True)
      (state2value): Linear(in_features=128, out_features=128, bias=True)
      (C_modules): ModuleList(
        (0): Linear(in_features=128, out_features=128, bias=True)
      )
      (f_module): LSTMCell(128, 128)
      (heads): ModuleList(
        (0): Linear(in_features=128, out_features=5, bias=True)
        (1): Linear(in_features=128, out_features=2, bias=True)
      )
    )
    (9): DecAgent(
      (encoder): Linear(in_features=3636, out_features=128, bias=True)
      (tanh): Tanh()
      (state2query): Linear(in_features=128, out_features=16, bias=True)
      (state2key): Linear(in_features=128, out_features=16, bias=True)
      (state2value): Linear(in_features=128, out_features=128, bias=True)
      (C_modules): ModuleList(
        (0): Linear(in_features=128, out_features=128, bias=True)
      )
      (f_module): LSTMCell(128, 128)
      (heads): ModuleList(
        (0): Linear(in_features=128, out_features=5, bias=True)
        (1): Linear(in_features=128, out_features=2, bias=True)
      )
    )
    (10): DecAgent(
      (encoder): Linear(in_features=3636, out_features=128, bias=True)
      (tanh): Tanh()
      (state2query): Linear(in_features=128, out_features=16, bias=True)
      (state2key): Linear(in_features=128, out_features=16, bias=True)
      (state2value): Linear(in_features=128, out_features=128, bias=True)
      (C_modules): ModuleList(
        (0): Linear(in_features=128, out_features=128, bias=True)
      )
      (f_module): LSTMCell(128, 128)
      (heads): ModuleList(
        (0): Linear(in_features=128, out_features=5, bias=True)
        (1): Linear(in_features=128, out_features=2, bias=True)
      )
    )
  )
  (value_head): Linear(in_features=128, out_features=1, bias=True)
)
====================================================================================================

batch:  0
batch:  1
batch:  2
batch:  3
batch:  4
batch:  5
batch:  6
batch:  7
batch:  8
batch:  9
Epoch 1
Episode: 1120
Reward: [-3.81 -3.8  -3.83 -3.83 -3.82 -3.78 -3.79 -3.81 -3.83 -3.84]
Time: 1211.94s
Enemy-Reward: [2.16]
Success: 0.0000
Steps-Taken: 80.00
…
